…
        "outputId": "c25cc96e-7bff-450c-eac5-762992cc32b1"
      },
      "source": [
        "#Look at CNN model summary\n",
        "CNN_model.summary()"
      ],
      "execution_count": 101,
      "outputs": [
        {
          "output_type": "stream",
          "text": [
            "Model: \"sequential\"\n",
            "_________________________________________________________________\n",
            "Layer (type)                 Output Shape              Param #   \n",
            "=================================================================\n",
            "conv1d (Conv1D)              (None, 40, 16)            96        \n",
            "_________________________________________________________________\n",
            "conv1d_1 (Conv1D)            (None, 40, 32)            2592      \n",
            "_________________________________________________________________\n",
            "conv1d_2 (Conv1D)            (None, 40, 64)            10304     \n",
            "_________________________________________________________________\n",
            "conv1d_3 (Conv1D)            (None, 40, 128)           41088     \n",
            "_________________________________________________________________\n",
            "dropout (Dropout)            (None, 40, 128)           0         \n",
            "_________________________________________________________________\n",
            "flatten (Flatten)            (None, 5120)              0         \n",
            "_________________________________________________________________\n",
            "dense (Dense)                (None, 128)               655488    \n",
            "_________________________________________________________________\n",
            "dropout_1 (Dropout)          (None, 128)               0         \n",
            "_________________________________________________________________\n",
            "dense_1 (Dense)              (None, 64)                8256      \n",
            "_________________________________________________________________\n",
            "dense_2 (Dense)              (None, 8)                 520       \n",
            "=================================================================\n",
            "Total params: 718,344\n",
            "Trainable params: 718,344\n",
            "Non-trainable params: 0\n",
            "_________________________________________________________________\n"
          ],
          "name": "stdout"
        }
      ]
    },
    {
      "cell_type": "code",
      "metadata": {
…
